…
comment" spellcheck="true"># x = self.linear2(x)</span>        x <span class="token operator">=</span> self<span class="token punctuation">.</span>model1<span class="token punctuation">(</span>x<span class="token punctuation">)</span>        <span class="token keyword">return</span> xmyNN <span class="token operator">=</span> MyNN<span class="token punctuation">(</span><span class="token punctuation">)</span><span class="token keyword">print</span><span class="token punctuation">(</span>myNN<span class="token punctuation">)</span><span class="token triple-quoted-string string">'''MyNN(  (conv1): Conv2d(3, 32, kernel_size=(5, 5), stride=(1, 1), padding=(2, 2))  (maxpool1): MaxPool2d(kernel_size=2, stride=2, padding=0, dilation=1, ceil_mode=False)  (conv2): Conv2d(32, 32, kernel_size=(5, 5), stride=(1, 1), padding=(2, 2))  (maxpool2): MaxPool2d(kernel_size=2, stride=2, padding=0, dilation=1, ceil_mode=False)  (conv3): Conv2d(32, 64, kernel_size=(5, 5), stride=(1, 1), padding=(2, 2))  (maxpool3): MaxPool2d(kernel_size=2, stride=2, padding=0, dilation=1, ceil_mode=False)  (flatten): Flatten(start_dim=1, end_dim=-1)  (linear1): Linear(in_features=1024, out_features=64, bias=True)  (linear2): Linear(in_features=64, out_features=10, bias=True))'''</span>input <span class="token operator">=</span> torch<span class="token punctuation">.</span>ones<span class="token punctuation">(</span><span class="token punctuation">(</span><span class="token number">64</span><span class="token punctuation">,</span><span class="token number">3</span><span class="token punctuation">,</span><span class="token num
…
ss="token number">6</span><span class="token punctuation">]</span> <span class="token operator">=</span> nn<span class="token punctuation">.</span>Linear<span class="token punctuation">(</span><span class="token number">4096</span><span class="token punctuation">,</span><span class="token number">10</span><span class="token punctuation">)</span><span class="token keyword">print</span><span class="token punctuation">(</span>vgg16_true<span class="token punctuation">)</span><span class="token triple-quoted-string string">'''Files already downloaded and verifiedVGG(  (features): Sequential(    (0): Conv2d(3, 64, kernel_size=(3, 3), stride=(1, 1), padding=(1, 1))    (1): ReLU(inplace=True)    (2): Conv2d(64, 64, kernel_size=(3, 3), stride=(1, 1), padding=(1, 1))    (3): ReLU(inplace=True)    (4): MaxPool2d(kernel_size=2, stride=2, padding=0, dilation=1, ceil_mode=False)    (5): Conv2d(64, 128, kernel_size=(3, 3), stride=(1, 1), padding=(1, 1))    (6): ReLU(inplace=True)    (7): Conv2d(128, 128, kernel_size=(3, 3), stride=(1, 1), padding=(1, 1))    (8): ReLU(inplace=True)    (9): MaxPool2d(kernel_size=2, stride=2, padding=0, dilation=1, ceil_mode=False)    (10): Conv2d(128, 256, kernel_size=(3, 3), stride=(1, 1), padding=(1, 1))    (11): ReLU(inplace=True)    (12): Conv2d(256, 256, kernel_size=(3, 3), stride=(1, 1), padding=(1, 1))    (13): ReLU(inplace=True)    (14): Conv2d(256, 256, kernel_size=(3, 3), stride=(1, 1), padding=(1, 1))    (15): ReLU(inplace=True)    (16): MaxPool2d(kernel_size=2, stride=2, padding=0, dilation=1, ceil_mode=False)    (17): Conv2d(256, 512, kernel_size=(3, 3), stride=(1, 1), padding=(1, 1))    (18): ReLU(inplace=True)    (19): Conv2d(512, 512, kernel_size=(3, 3), stride=(1, 1), padding=(1, 1))    (20): ReLU(inplace=True)    (21): Conv2d(512, 512, kernel_size=(3, 3), stride=(1, 1), padding=(1, 1))    (22): ReLU(inplace=True)    (23): MaxPool2d(kernel_size=2, stride=2, padding=0, dilation=1, ceil_mode=False)    (24): Conv2d(512, 512, kernel_size=(3, 3), stride=(1, 1), padding=(1, 1))    (25): ReLU(inplace=True)    (26): Conv2d(512, 512, kernel_size=(3, 3), stride=(1, 1), padding=(1, 1))    (27): ReLU(inplace=True)    (28): Conv2d(512, 512, kernel_size=(3, 3), stride=(1, 1), padding=(1, 1))    (29): ReLU(inplace=True)    (30): MaxPool2d(kernel_size=2, stride=2, padding=0, dilation=1, ceil_mode=False)  )  (avgpool): AdaptiveAvgPool2d(output_size=(7, 7))  (classifier): Sequential(    (0): Linear(in_features=25088, out_features=4096, bias=True)    (1): ReLU(inplace=True)    (2): Dropout(p=0.5, inplace=False)    (3): Linear(in_features=4096, out_features=4096, bias=True)    (4): ReLU(inplace=True)    (5): Dropout(p=0.5, inplace=False)    (6): Linear(in_features=4096, out_features=10, bias=True)    (add_linear1): Linear(in_features=1000, out_features=10, bias=True)  )  (add_linear2): Linear(in_features=1000, out_features=10, bias=True))'''</span></code></pre><h5 id="网络模型的保存和读取"><a href="#网络模型的保存和读取" class="headerlink" title="网络模型的保存和读取"></a>网络模型的保存和读取</h5><pre class=" language-python"><code class="language-python"><span class="token comment" spellcheck="true">#encoding=utf-8</span><span class="token keyword">import</span> torch<span class="token keyword">import</span> torchvisionvgg1
…
pan class="token punctuation">)</span><span class="token punctuation">)</span>        x <span class="token operator">=</span> self<span class="token punctuation">.</span>fc3<span class="token punctuation">(</span>x<span class="token punctuation">)</span>        <span class="token keyword">return</span> xnet <span class="token operator">=</span> Net<span class="token punctuation">(</span><span class="token punctuation">)</span><span class="token keyword">print</span><span class="token punctuation">(</span>net<span class="token punctuation">)</span></code></pre><p>Out:</p><pre><code>Net(  (conv1): Conv2d(1, 6, kernel_size=(5, 5), stride=(1, 1))  (conv2): Conv2d(6, 16, kernel_size=(5, 5), stride=(1, 1))  (fc1): Linear(in_features=400, out_features=120, bias=True)  (fc2): Linear(in_features=120, out_features=84, bias=True)  (fc3): Linear(in_features=84, out_features=10, bias=True))</code></pre><p>您只需要定义<code>forward</code>函数，<code>backward</code>函数(计算梯度的地方)将使用<code>autograd</code>为您自动定义。 你可以在<code>forward</code>函数中使用任何<code>Tensor </code>运算。  </p><p>模型的可学习参数由<code>net.parameters()</code>返回。  </p><pre class=" language-python"><code class="language-python">params <span class="token operator">=</span> list<span class="token punctuati
…
